…
WARNING:root:The number of nodes in your data object can only be inferred by its edge indices, and hence may result in unexpected batch-wise behavior, e.g., in case there exists isolated nodes. Please consider explicitly setting the number of nodes for this data object by assigning it to data.num_nodes.
WARNING:root:The number of nodes in your data object can only be inferred by its edge indices, and hence may result in unexpected batch-wise behavior, e.g., in case there exists isolated nodes. Please consider explicitly setting the number of nodes for this data object by assigning it to data.num_nodes.
#nodes:  20493
GLAN(
  (loss_func): CrossEntropyLoss()
  (word_embedding): Embedding(12052, 300, padding_idx=0)
  (user_tweet_embedding): Embedding(20493, 300, padding_idx=0)
  (mh_attention): MultiheadAttention(
    (linear1): Linear(in_features=300, out_features=300, bias=True)
    (linear2): Linear(in_features=300, out_features=300, bias=True)
    (linear3): Linear(in_features=300, out_features=300, bias=True)
    (dropout): Dropout(p=0.0, inplace=False)
  )
  (linear_fuse): Linear(in_features=600, out_features=1, bias=True)
  (gnn1): GATConv(300, 8, heads=8)
  (gnn2): GATConv(64, 300, heads=1)
  (attention): Attention(
    (linear1): Linear(in_features=600, out_features=300, bias=True)
    (linear2): Linear(in_features=300, out_features=1, bias=True)
    (activation): ReLU()
    (dropout): Dropout(p=0.5, inplace=False)
  )
  (convs_source): ModuleList(
    (0): Conv1d(300, 100, kernel_size=(3,), stride=(1,))
    (1): Conv1d(300, 100, kernel_size=(4,), stride=(1,))
    (2): Conv1d(300, 100, kernel_size=(5,), stride=(1,))
  )
  (convs_replies): ModuleList(
    (0): Conv1d(300, 100, kernel_size=(3,), stride=(1,))
    (1): Conv1d(300, 100, kernel_size=(4,), stride=(1,))
    (2): Conv1d(300, 100, kernel_size=(5,), stride=(1,))
  )
  (max_poolings): ModuleList(
    (0): MaxPool1d(kernel_size=48, stride=48, padding=0, dilation=1, ceil_mode=False)
    (1): MaxPool1d(kernel_size=47, stride=47, padding=0, dilation=1, ceil_mode=False)
    (2): MaxPool1d(kernel_size=46, stride=46, padding=0, dilation=1, ceil_mode=False)
  )
  (dropout): Dropout(p=0.5, inplace=False)
  (relu): ReLU()
  (fc_out): Sequential(
    (0): Linear(in_features=600, out_features=300, bias=True)
    (1): Dropout(p=0.5, inplace=False)
    (2): ReLU()
    (3): Linear(in_features=300, out_features=2, bias=True)
  )
)

Epoch  1 / 30
Batch[0] - loss: 0.748572  acc: 43.7500%(28/64)
Batch[1] - loss: 0.694949  acc: 51.5625%(33/64)
Batch[2] - loss: 0.688037  acc: 53.1250%(34/64)
Batch[3] - loss: 0.668182  acc: 68.7500%(44/64)
Batch[4] - loss: 0.822695  acc: 37.5000%(24/64)
Batch[5] - loss: 0.716625  acc: 51.5625%(33/64)
Batch[6] - loss: 0.687963  acc: 57.8125%(37/64)
…
